data-dc/lstm_model_final.pth (torch, 424325 bytes, 10 tensors)

lstm1.weight_ih_l0 f4 [318, 9]
00000000: d9da ab39 3158 3dba 0532 2e39 9fad dbb9
00000010: 8774 b1b9 3d95 a5b9 5343 02b9 f1bf 73b8
00000020: dd39 65b9 b0f4 553e aa3c 2f3d 8426 0e3d
00000030: 5bc2 8e3d 9d56 d239 c428 e33b 5f8a 433c
00000040: 7bc0 333a f0ed d6b9 df5c 503d 013f 8a3c
00000050: 0823 1f3c 9306 873c 8f0e 343c b589 5f3c
00000060: 9a4d 693c e7ba 123b fad4 fdb9 2916 f839
00000070: d725 9f37 b7ef 8e37 f743 c838 b050 85b8
00000080: 0354 dd35 8bd7 8635 a9f0 3936 d51d d335
00000090: 28a9 c13a 99a8 0e39 ed12 7e39 9f2f dbb9
000000a0: d5e2 20b8 3b4d 0137 a84f b539 8013 6238
000000b0: c6d2 b5b6 8ba0 c23a ab19 80b8 aafe 21b9
000000c0: ca1e 1238 d8b7 14b9 2f43 91b9 cfd8 ec38
000000d0: f675 eeb9 22fc 39b9 1b40 563b e387 53ba
000000e0: 3df3 893a 2b66 fe39 3de4 3ab8 04ad ab3a
000000f0: 1f7c 00ba 60ee e9ba b83f d738 1c3b a53b
00000100: 2ced b739 8899 4f3a f7d0 2439 4bed 8c3a
00000110: bb89 3739 2143 e939 b09c 463a 3d13 a7b9
00000120: 9bc6 f2b9 0fb3 31b5 0bde 7538 116b af38
00000130: 5d28 a9b9 f843 bd37 6337 04b9 34e6 35b9
00000140: 7d6f e3b7 6ee4 cb3a 86db 0f3a ca56 f3b9
00000150: e9df 2cba f0d6 b739 66ee 78b9 2678 943a
00000160: 9294 e3b7 20ea 8cb8 716f 1e3e ec8a da3b
00000170: bc13 883c 9098 953c 7efa d13c cfc6 113d
00000180: dd5e c13c ff0b ff3b bcb7 c139 43ec 173c
00000190: 3116 88b9 4f9b e43a b241 9e3a 459d ceba
000001a0: ffdb a03a 5fa2 13b8 e51a f3ba c5cb 3f37
000001b0: c337 203b 0f44 413a 8ac7 24ba 141a cab9
000001c0: 8d80 31ba 7d3d d6b9 c123 8ab9 ab69 7b37
000001d0: c9ad 78b9 31a8 233e 2ad4 b73c 484f a03b
000001e0: 76ed f23c c349 ec3c 569e 0b3d 5d69 133d
000001f0: d6c0 893b e270 173a d47d 0238 7526 ceb8
00000200: ffa9 d7b7 80da 1cb9 2c9b 7e38 88ca 41b8
00000210: 8692 4cb8 5c9b 0339 d6f6 8436 f36b 0c3b
00000220: e776 4e38 786f 0a39 6efc 74b9 2cd5 15ba
00000230: 3a5f 60b7 432f 4339 0a31 0aba 3ac8 5d37
00000240: dddf 4e3a 33bb fc39 4b98 0f3a a35a 4cba
00000250: 8caa 8f38 eeae 31ba 159d 563a 4fe4 beb9
00000260: ec0f 8bb8 aae4 a03b 3de1 ce3a 112a 89ba
00000270: be73 b339 8500 1dba ded0 01bb 8dfd 0039
00000280: 7eb2 18b9 07ac 0ab9 8080 33ba 3a60 d0b8
00000290: 0921 04b9 6479 49b8 5a06 a738 04df 6db9
000002a0: d641 59b8 2087 e938 662f 3cb5 e5d9 7439
000002b0: c9d5 3037 2acb ab37 d782 ee35 26ec 4bb7
000002c0: db8b b7b7 916b 9b37 dfb9 e8b7 0aab 9835
000002d0: ed05 ba3c bc77 683b 2a35 853b 51c6 ec3a
000002e0: 7e1e 83ba c9d7 143b 90d9 2dba f918 5d3a
000002f0: e4be acb7 fac7 c53b c4fa 28ba 394e 9f3a
00000300: f975 98ba 9a60 6339 323f bab9 f3de c939
00000310: b0bf 33ba d5d0 4d38 e94f 193e 75b6 4e3c
00000320: e5b7 553c aa63 7d3c aa6d 343c fc1a be3c
00000330: fb41 603c 6953 a0ba 45b4 bdb7 48d1 3739
00000340: c892 2d39 46f9 0939 4ddb a437 915a 3939
00000350: 30ab 5738 e777 4d39 2d18 2635 5bff 9d37
00000360: 6873 593b 875f 0e39 ed4d 8d39 6595 04ba
00000370: 5c1a feb9 8bf8 4cba 7eed a239 807d 02b8
00000380: ad5c 8f36 a429 8139 7b44 d237 1585 72b8
00000390: da84 0eb9 a377 5039 9b2e bdb8 a532 9b38
000003a0: c233 b038 ebff 9138 2b9d be3a dea6 8539
000003b0: 9442 13b9 a150 4539 ed27 ba39 541a c7b9
000003c0: 14b0 b539 d341 c738 4955 64b9 e68f a63b
000003d0: bb04 10ba 734c 2b3b c0c8 b039 b525 13b8
000003e0: e1a6 e139 fde0 f537 fad2 9bba cc1a 1b3a
000003f0: 6df8 643b a19b 303a 36c2 75b9 ac3c 06ba
0.00032778716 -0.00072229194 0.00016612567 -0.00041900293 -0.0003384689 -0.00031582444 -0.00012422846 -5.8114474e-05
-0.00021860698 0.20894122 0.042782463 0.0347047 0.06970664 0.00040118853 0.00693235 0.011934846
0.000685699 -0.00040994538 0.05086982 0.016875746 0.009712942 0.016482627 0.010989799 0.013643672
0.014239693 0.0022389235 -0.000484146 0.00047318757 1.8971898e-05 1.7039345e-05 9.5494026e-05 -6.3569634e-05
1.6490234e-06 1.0046509e-06 2.770723e-06 1.5729407e-06 0.0014775144 0.00013604983 0.00024230378 -0.00041806416
-3.8358226e-05 7.706981e-06 0.0003458236 5.390076e-05 -5.4187576e-06 0.0014848871 -6.108297e-05 -0.00015449026
3.4837787e-05 -0.00014182867 -0.0002770661 0.00011293741 -0.00045482785 -0.00017736902 0.0032692018 -0.000806926
0.0010524761 0.00048522776 -4.455842e-05 0.0013097827 -0.0004901308 -0.001784753 0.000102638674 0.005042447
0.00035081187 0.0007919301 0.00015718104 0.0010751871 0.00017503549 0.00044491238 0.0007576449 -0.00031867056
-0.0004630581 -6.61982e-07 5.8619346e-05 8.364593e-05 -0.00032264265 2.2562206e-05 -0.00012609134 -0.00017347262
-2.7112425e-05 0.0015555748 0.00054877286 -0.00046413235 -0.00065946445 0.0003506462 -0.00023739933 0.0011327311
-2.7129692e-05 -6.7193294e-05 0.15472199 0.006669393 0.016610973 0.018261224 0.02563214 0.03558999
0.023604805 0.0077834125 0.0003694872 0.009272638 -0.00025956475 0.0017441305 0.0012074022 -0.0015763423
0.0012272595 -3.519875e-05 -0.0018547444 1.1431931e-05 0.00244473 0.0007372507 -0.0006285837 -0.00038547872
-0.000677117 -0.00040863073 -0.0002634805 1.4985369e-05 -0.00023715863 0.15982129 0.022440035 0.0048922636
0.029654246 0.028843766 0.034086548 0.035989154 0.004203896 0.0005777014 3.1111602e-05 -9.830009e-05
-2.5709158e-05 -0.00014958717 6.0702834e-05 -4.6203408e-05 -4.877385e-05 0.0001255101 3.962642e-06 0.0021426647
4.9224964e-05 0.00013202231 -0.0002336369 -0.0005715664 -1.3373612e-05 0.00018614256 -0.00052715896 1.3219245e-05
0.00078916346 0.0004820466 0.00054777105 -0.00077954883 6.850538e-05 -0.0006778081 0.0008186859 -0.00036409727
-6.631002e-05 0.0049100714 0.0015783679 -0.0010464807 0.00034227775 -0.0005989152 -0.0019808332 0.00012301486
-0.00014562343 -0.00013224791 -0.0006847456 -9.9361365e-05 -0.00012600808 -4.803519e-05 7.9643636e-05 -0.00022685161
-5.1798146e-05 0.00011135475 -7.010443e-07 0.00023350825 1.0540193e-05 2.0479394e-05 1.7770461e-06 -1.21547255e-05
-2.1880425e-05 1.852753e-05 -2.7743108e-05 1.1374661e-06 0.022707904 0.0035471758 0.0040651755 0.0018064474
-0.0010003594 0.0022711626 -0.00066318456 0.0008434202 -2.0592888e-05 0.006035802 -0.00064460584 0.001215405
-0.0011631838 0.00021684394 -0.0003552377 0.00038503818 -0.0006856872 4.90703e-05 0.1497189 0.012616743
0.013044332 0.015465656 0.011012474 0.023206227 0.013687606 -0.0012231889 -2.26145e-05 0.00017530203
0.00016553246 0.000131582 1.9652443e-05 0.00017676713 5.1419425e-05 0.0001959499 6.1875e-07 1.8834768e-05
0.003318036 0.00013577762 0.00026951675 -0.0005057662 -0.00048466295 -0.0007819018 0.00031075993 -3.1111296e-05
4.272521e-06 0.00024635822 2.506584e-05 -5.782124e-05 -0.00013591666 0.00019880994 -9.020903e-05 7.400409e-05
8.4019746e-05 6.961807e-05 0.0014542689 0.00025492063 -0.00014043815 0.0001881742 0.00035506432 -0.00037975854
0.000346542 9.50132e-05 -0.00021775546 0.005083072 -0.0005493869 0.0026138097 0.00033718906 -3.508265e-05
0.0004303968 2.9311044e-05 -0.0011888437 0.0005916774 0.0034938112 0.00067370577 -0.0002343737 -0.0005120735

lstm1.weight_hh_l0 f4 [318, 106]
00000000: 014d acb6 8f10 35ba 39a9 71b8 f408 39b7
00000010: 7288 c6b6 008b 0135 1d43 2eb8 ef31 8f38
00000020: dac7 f337 fe9b ecb6 b7a7 033a 2ef5 62b8
00000030: 41ba 67b8 26d8 feb9 baf3 d9b6 abfa 3ab8
00000040: c7bc 0937 39ef fbb7 9164 91b5 e501 2035
00000050: 1e72 7c38 0982 36b8 2cce d339 528d 2c36
00000060: 43a1 7ab7 e1cc dd36 b90f f6b7 20b0 3438
00000070: 254a bab7 641c 3c38 8dc2 a537 66e2 033a
00000080: 4cc4 5838 f906 2f3a 7e36 d7b7 3941 b836
00000090: 3524 38b8 1f64 fa37 45c5 fcb9 8f75 4238
000000a0: f967 083a ece0 29b8 1c8c 6937 9147 1bb7
000000b0: d985 52b8 d1c9 4138 37a9 d9b9 d5de ed39
000000c0: 84d6 3d38 9c38 eb37 4e3a b137 ff54 02ba
000000d0: 0eaf e2b9 c616 8eb7 cfe8 ceb9 b59b d735
000000e0: 0d25 beb9 50a3 02ba 612a 8739 9706 d9b7
000000f0: aa09 2ab8 8a2a e439 05a8 f6b9 15dd 08b8
00000100: 85e0 3eb8 2590 3138 696c 80b7 ff4d 3038
00000110: f996 ec39 ab5f 0438 eba4 2d39 9911 233a
00000120: d207 0db8 1c5c 04ba bef6 0938 7def 00ba
00000130: f045 3338 475e 4338 3e0c 46b8 f381 1938
00000140: 57cc df37 01fb 38b8 5eca 3f38 5652 c439
00000150: b628 7738 df3e 58b8 eeac f0b7 aeb2 3db8
00000160: 24ad fcb7 44d3 41b8 cb8c 40b7 a030 04ba
00000170: 350b ba36 0585 3c38 618e 0eb8 847a ab39
00000180: b45d fbb7 3168 e8b9 b18e 023a c193 9137
00000190: e91d 28b8 871d 2b3a fa68 22b7 0d6e f8b7
000001a0: 3d3d 0838 426e 5838 d510 96b9 53c8 8a3b
000001b0: cef7 3cb9 276d 8636 452a 3a39 80e3 1a39
000001c0: 82dd a8b9 33b0 c639 439a ae39 231c 4f39
000001d0: 1c30 18bb caec 54ba e120 b3b8 fa4f f73a
000001e0: c629 dfb9 875c 14ba 393b 3e38 b472 4dba
000001f0: c1a6 50b9 8db9 13b9 d651 583a 7185 f9b9
00000200: b18e d7ba d9c0 4d38 1d10 2fb9 e013 a739
00000210: 6ecb 43ba 3b6d d639 2462 88b9 1c6f 9239
00000220: 9b34 b3b8 ff2d 03bb fd80 b439 f984 84bb
00000230: 4957 71ba d08c 093a e27f 2cba e09a 8b38
00000240: 82e2 093b f560 6139 f652 2abb 8672 c5b7
00000250: 4644 15b9 b408 5938 f40d 30b7 7c6d a239
00000260: d253 b93a 3c63 e2ba e731 8e39 c412 2e3a
00000270: 694a 403a 23f4 323b 1440 4e3b 52a3 dbb7
00000280: d4ea 883a fa7f 8739 8fef 843a 1d60 033b
00000290: 4cc3 c5ba 11cb 07ba 4103 dc38 3f3a 80bb
000002a0: 482c 0c3b 1fae 21b9 c0e5 7738 ec5d af39
000002b0: af32 f2b9 5df6 8939 d663 63bb 7e7c 2e3a
000002c0: 9959 dfba d126 0cbb 1e83 95b9 1707 243b
000002d0: 0e3a 9339 6e1d 053b 21e3 7fb8 bc6a 8f39
000002e0: cedb e3b9 fd55 c3b9 6819 303a 6e7b b3b9
000002f0: e1db 363a 6c95 64ba 8539 9d3a c690 27b9
00000300: 5ab3 0b39 6b94 32b9 951e 67ba 11cc 2638
00000310: 99ba ecb9 1c2a 223b 8635 fab8 7db8 21b8
00000320: 423d 7639 7a37 80ba 1fa2 6fb9 54c9 b33a
00000330: 0b63 21bb 67fd 6238 8d87 eab9 1852 7dbb
00000340: f85f 20b9 a722 343a d810 3c3a 1d03 4039
00000350: f977 78b9 5dfe c33b 54b2 bdb8 4af0 9a38
00000360: 63cb d238 c969 02b9 b0c2 be39 2040 42b9
00000370: c7d9 cf39 9b6c 3338 1c89 bebb b17b 8239
00000380: 8098 a139 7859 c13b 538c cd35 07d8 8b39
00000390: 5dc5 1a3a 9dd3 24ba ce00 c339 2af3 ffb8
000003a0: 2b18 273a b208 6eb6 67d0 91bb a60a 52b9
000003b0: a8ce 9e39 e615 5dba c6dc 8339 10fa 89b9
000003c0: 9c8c 323a 7d2b 06b9 0f20 b9b9 91fb c0bb
000003d0: 65e9 a3b9 3635 b6bb 7e73 7b39 b777 26b9
000003e0: 5075 9f39 f336 3938 aa63 c03b 710a 3dba
000003f0: 6195 bdbb 09be 993a 63bd d439 2a7b aa38
-5.134964e-06 -0.00069070695 -5.761648e-05 -1.1028944e-05 -5.916744e-06 4.8258516e-07 -4.1547337e-05 6.828072e-05
2.906092e-05 -7.051508e-06 0.0005022245 -5.411094e-05 -5.5248154e-05 -0.00048607698 -6.4954775e-06 -4.457931e-05
8.2097895e-06 -3.0032928e-05 -1.083261e-06 5.96074e-07 6.0187762e-05 -4.3513286e-05 0.00040398666 2.5712257e-06
-1.4938708e-05 6.6101643e-06 -2.9332807e-05 4.3079373e-05 -2.2207454e-05 4.4849134e-05 1.9760128e-05 0.00050309894
5.168123e-05 0.0006676759 -2.5655372e-05 5.4912202e-06 -4.390274e-05 2.9848945e-05 -0.00048212163 4.636269e-05
0.00052034814 -4.0502215e-05 1.3920504e-05 -9.255383e-06 -5.0192557e-05 4.6202742e-05 -0.0004151554 0.00045370185
4.5260895e-05 2.8040544e-05 2.1127194e-05 -0.0004971772 -0.00043236505 -1.6938324e-05 -0.00039464838 1.6064065e-06
-0.0003626723 -0.0004983442 0.0002578078 -2.5871484e-05 -4.054016e-05 0.00043519243 -0.0004704596 -3.2630825e-05
-4.550863e-05 4.2334334e-05 -1.5309271e-05 4.203431e-05 0.0004512591 3.156035e-05 0.00016560002 0.0006220579
-3.3624303e-05 -0.0005049126 3.2893142e-05 -0.0004918499 4.274206e-05 4.6579426e-05 -4.721828e-05 3.6599067e-05
2.6678825e-05 -4.4102784e-05 4.5726418e-05 0.00037445378 5.8927304e-05 -5.1556966e-05 -2.8690756e-05 -4.522752e-05
-3.0121366e-05 -4.6211542e-05 -1.1476873e-05 -0.0005042646 5.5445366e-06 4.4946577e-05 -3.398804e-05 0.00032706943
-2.9965166e-05 -0.00044328117 0.0004980369 1.735415e-05 -4.0082177e-05 0.0006527532 -9.680394e-06 -2.961515e-05
3.248196e-05 5.16011e-05 -0.0002862277 0.0042353063 -0.00018021392 4.006218e-06 0.00017754089 0.00014771335
-0.00032208493 0.00037896782 0.000333028 0.0001975154 -0.0023222035 -0.00081224425 -8.541509e-05 0.0018868439
-0.00042564998 -0.00056595396 4.5354685e-05 -0.00078372215 -0.00019898546 -0.00014088136 0.00082519406 -0.00047592403
-0.0016445724 4.9055412e-05 -0.00016695303 0.0003186753 -0.0007468973 0.00040898644 -0.00026013062 0.00027930073
-8.545184e-05 -0.002001643 0.0003442838 -0.004044172 -0.0009206427 0.0005247118 -0.00065803353 6.656884e-05
0.002103955 0.00021493791 -0.002598939 -2.353756e-05 -0.00014235181 5.1744937e-05 -1.0493666e-05 0.0003098062
0.001413936 -0.0017272006 0.0002712153 0.00066403695 0.0007335307 0.0027306161 0.00314713 -2.6182886e-05
0.0010445961 0.00025844557 0.0010142195 0.0020046302 -0.001508811 -0.00051801006 0.000104910236 -0.0039131935
0.0021388698 -0.00015419022 5.910336e-05 0.00033448578 -0.000461956 0.0002631423 -0.0034696958 0.0006656124
-0.0017040252 -0.002138544 -0.00028517185 0.002502864 0.0002808128 0.002031173 -6.1008268e-05 0.0002735461
-0.0004346058 -0.00037257365 0.0006717653 -0.00034233503 0.00069755135 -0.00087197754 0.0011995292 -0.00015980293
0.00013322887 -0.00017030693 -0.0008816508 3.9767536e-05 -0.00045152454 0.0024744337 -0.000119308985 -3.855721e-05
0.00023483208 -0.0009782158 -0.00022853211 0.0013716617 -0.0024625685 5.41186e-05 -0.0004473295 -0.0038653668
-0.0001529454 0.00068716187 0.0007174141 0.00018311707 -0.00023695816 0.00598125 -9.0454385e-05 7.3880496e-05
0.00010051464 -0.00012437174 0.00036384678 -0.0001852517 0.00039644373 4.2778072e-05 -0.0058146846 0.0002488769
0.00030821934 0.005900558 1.531453e-06 0.000266731 0.0005904043 -0.00062876364 0.00037193898 -0.000122046404
0.0006374146 -3.5469825e-06 -0.0044498923 -0.00020031127 0.0003029008 -0.0008433744 0.00025150756 -0.00026316987
0.00068111136 -0.00012795436 -0.00035309835 -0.005889364 -0.00031263675 -0.0055605425 0.0002398025 -0.00015875591
0.00030414248 4.4158613e-05 0.005871256 -0.0007211334 -0.0057856296 0.0011729609 0.00040576895 8.129173e-05

lstm1.bias_ih_l0 f4 [318]
00000000: 8d97 05ba 02cd 0c3d e709 3d3c 0451 46b7
00000010: 2225 de38 8ad2 a0b9 37c2 5339 d064 2b3a
00000020: cdf4 25b8 6249 97b8 652b a03c 17eb a937
00000030: 0790 00b9 ebba c03c ce46 ccb7 9d2e 36b9
00000040: b3fa 80b7 8c2b 14ba 989f 63b8 8ab6 9636
00000050: 4df6 f53a d11d 8bb9 ddcc 7d3c 31f9 2b39
00000060: 9e1a e3b9 ab46 1a39 3187 ecb8 3700 f839
00000070: e6c7 93b9 ed83 3c39 917a d1b9 f69b b53c
00000080: 00e2 de39 562a 1e3d 278a deb8 bb47 8a3c
00000090: 31ef 61b9 d003 92b9 bbeb a33c 350b 6eb9
000000a0: 297f 963c 3f90 5fb9 3085 ee38 5f5b f238
000000b0: 7d6d dc3a 8ea5 0dba 4945 953c 80c7 d93c
000000c0: bd33 60b9 d03b 28ba a506 8138 968b 9c3c
000000d0: 3526 c03b a31c ffb8 8c96 963c 381c fb38
000000e0: 4a48 a53c 6868 b23c 0703 853c 6792 1bba
000000f0: 2d69 4eba 403b 443c dad5 c63c 50ea e0b9
00000100: a22f 98b9 7dc3 31ba d493 c339 6ca0 1f39
00000110: 971b d73c 0d9c 7038 95a9 b13c f6d1 b63c
00000120: 5efb 0fb9 eb1b d13c 97f8 80b8 cb10 923c
00000130: dbd5 6eb9 d9ae 8ab8 cf6b a23a 460c 2d39
00000140: 8f74 a9b9 252f 413a a79b 8639 9ca4 a63c
00000150: 7564 623b 4a4a 92b9 5c9a cdb8 ec29 0e3a
00000160: acec da39 2d4d 8138 1dff 4cb9 60cd 8b3c
00000170: d3e7 4ab9 af8e feb8 f951 9db9 5b81 5b3c
00000180: 39c7 1938 4f69 b03c 1e6d a33c 6c9a dd37
00000190: 1848 3939 9887 0d3d 81b4 e039 4575 163c
000001a0: f7af a339 4ea2 c039 8d64 a939 bf95 83bd
000001b0: 4698 d0bc c8e0 bc39 0a4c b139 e3f2 d039
000001c0: 6077 a0bb 13b0 133b e65b 3f3a 711a 413a
000001d0: 4a2d 51bd 1660 86bb 85a5 2bb7 660e 54bd
000001e0: a6fc 7f39 73cb 40bb 4f2f a1ba 84b2 a4bb
000001f0: e08a 9b39 9040 6139 b91a 41bc 3409 57bb
00000200: 717e 1abd 2aae 6d39 0b16 84ba 9861 8338
00000210: ce81 e33a 8697 d9ba 6d43 07ba f962 0abb
00000220: 1de6 1ebb 5d95 69bd fe60 86bb ab28 8abd
00000230: 04ea 06bb ca0f cbbc d482 863b 32a7 c4b8
00000240: d031 5bbd e4a6 21bb 8e99 41bd 266f 25bb
00000250: b365 fb39 02e8 a339 d997 88bb 1eac f23a
00000260: 00c6 2bbd e86a 59bd 271f 9fba 1ae9 b9ba
00000270: 82fb 2abb 589a 59bd 5940 5abc 4a12 65ba
00000280: 3011 28bd ab11 d539 fd14 1dbd 4899 53bd
00000290: eaa1 c5bc add7 8ab8 777e 16bb 8984 77bc
000002a0: 4562 6abd c4ed 83b8 0bd7 1bbb 1384 9539
000002b0: 56af 003a aac5 5cbb d045 36be be73 84bb
000002c0: 90bf c7bd 099f 8d3d 6b10 9f39 6c79 5dbd
000002d0: d6c1 7037 7da1 45bd bc3e 11bb b949 a03a
000002e0: 696c d5ba 6169 a2bb 7841 6eba 2442 18bb
000002f0: df10 acba 1196 27bd b7ac 82bc 8d4f 2ebb
00000300: 04b4 203a cff1 9d3a 9093 82bb 462b 97bb
00000310: cb13 5939 ca23 58bd 15ff 3239 5a3e 47bb
00000320: 8d2f bdbb daf0 b6bc cde6 5839 c4e4 46bd
00000330: 7761 55bd b3b6 6938 4169 5b3a 43af 8dbd
00000340: 5dc3 813a dcca dcbd 2b71 9838 d108 d0bb
00000350: 2057 033b d68c ee3e 6af3 a33b 1177 c1bb
00000360: e370 053a 438d 2eba be18 adbc 024b 733c
00000370: cff4 973a 6206 3bba d41b 67be 0eea 873a
00000380: c843 27bd 47a2 5f3e 693e 643b 1819 aabb
00000390: b85e 0e3b 4497 b03b 5d97 e4ba 48f2 25bb
000003a0: ad31 f33b 2a6e 4c3c ac3b 3bbe 2bbe 5bba
000003b0: 7d0e 5f3a 6ff5 adbc 0aa0 37bb 21be 98b9
000003c0: d7cf b8bc 31eb d2ba 1c94 153c 97e8 50be
000003d0: 2a8d 5cb9 f67a f9be 21a0 c0bb 3507 d6bc
000003e0: 197e 00bd 80d2 673b bc96 653e 0661 a33c
000003f0: 5613 58be 5109 1abd 0889 e73b e17c c9bb
-0.000509613 0.0343752 0.011538005 -1.1820583e-05 0.000105927014 -0.00030674442 0.00020194879 0.00065381546
-3.9567054e-05 -7.21391e-05 0.019551942 2.0255842e-05 -0.00012260686 0.02352663 -2.4351666e-05 -0.00017374237
-1.537553e-05 -0.0005652241 -5.426965e-05 4.4915987e-06 0.001876542 -0.0002653436 0.015490738 0.00016400662
-0.00043316645 0.0001471291 -0.00011278538 0.00047302406 -0.0002818696 0.00017978223 -0.00039954906 0.022169095
0.00042511523 0.038614593 -0.00010611518 0.016879907 -0.00021546778 -0.0002785013 0.020009866 -0.00022701624
0.018371182 -0.00021320673 0.000113735325 0.000115564784 0.0016817298 -0.0005403393 0.018221514 0.026584387
-0.00021381579 -0.0006417604 6.152437e-05 0.019109529 0.0058639296 -0.000121646815 0.018382333 0.00011973869
0.020176072 0.0217783 0.016236795 -0.00059345964 -0.0007873949 0.011977017 0.024271894 -0.00042899186
-0.00029027188 -0.0006781144 0.0003730344 0.00015223183 0.026258273 5.7365793e-05 0.021687308 0.022316914
-0.00013731184 0.025526008 -6.149819e-05 0.017830273 -0.00022777116 -6.612921e-05 0.0012391749 0.00016503138
-0.00032321035 0.0007369391 0.00025674442 0.020342164 0.003454474 -0.0002790264 -9.8039134e-05 0.0005423117
0.00041756534 6.1655745e-05 -0.00019549993 0.017065704 -0.00019350582 -0.00012138241 -0.00030006448 0.01339754
3.6663583e-05 0.02153459 0.019949492 2.6417161e-05 0.00017669832 0.03455314 0.00042859095 0.009183233
0.00031220887 0.0003674202 0.00032309108 -0.06425046 -0.025463235 0.0003602563 0.00033816724 0.00039853816
-0.004897043 0.0022535368 0.0007299766 0.0007366306 -0.05106858 -0.00410081 -1.0230932e-05 -0.051771544
0.00024412814 -0.002941814 -0.0012297424 -0.0050261635 0.00029667374 0.00021481724 -0.011786156 -0.0032811882
-0.03771824 0.00022666962 -0.001007737 6.264745e-05 0.001735741 -0.0016600944 -0.00051598885 -0.0021116121
-0.0024246045 -0.05702721 -0.004100918 -0.06746038 -0.0020586262 -0.024787802 0.0041049514 -9.377151e-05
-0.0535143 -0.0024666125 -0.04726558 -0.0025243252 0.00047950223 0.00031262642 -0.0041684923 0.001851443
-0.041936874 -0.05308047 -0.0012140021 -0.001418385 -0.0026089852 -0.05312571 -0.013321006 -0.0008738382
-0.041032016 0.0004063969 -0.038350094 -0.051659852 -0.024125058 -6.6205255e-05 -0.0022963563 -0.015107282
-0.057222623 -6.290854e-05 -0.0023779299 0.00028517898 0.00049089396 -0.0033687153 -0.17800069 -0.004042118
-0.097533345 0.06915099 0.00030339076 -0.054070875 1.4350246e-05 -0.04824971 -0.0022162637 0.0012229002
-0.0016282919 -0.00495641 -0.0009088735 -0.0023232782 -0.0013127587 -0.0409146 -0.015951497 -0.002659771
0.000613034 0.0012050214 -0.003984876 -0.004613313 0.00020702106 -0.052768506 0.00017070428 -0.0030402155
-0.0057734908 -0.022331644 0.00020685345 -0.04855801 -0.052094903 5.572168e-05 0.0008369871 -0.06918194
0.0009900142 -0.1078088 7.269004e-05 -0.0063487072 0.0020040944 0.46591824 0.0050033825 -0.0059040864
0.0005090369 -0.0006658623 -0.021129962 0.014849426 0.0011593344 -0.0007134435 -0.2256921 0.0010369436
-0.040836126 0.21839248 0.0034827238 -0.0051909797 0.0021723937 0.005389126 -0.0017440129 -0.0025321413
0.0074216933 0.012477437 -0.18284482 -0.0008382524 0.0008508934 -0.021235196 -0.0028018975 -0.00029133356
-0.022560043 -0.0016091821 0.00912955 -0.20401226 -0.00021033423 -0.48726624 -0.005878464 -0.026126483
-0.031370256 0.003537327 0.22420782 0.019943725 -0.21101126 -0.03760654 0.007065896 -0.00614892

lstm1.bias_hh_l0 f4 [318]
00000000: 8d97 05ba 02cd 0c3d e709 3d3c 0451 46b7
00000010: 2225 de38 8ad2 a0b9 37c2 5339 d064 2b3a
00000020: cdf4 25b8 6249 97b8 652b a03c 17eb a937
00000030: 0790 00b9 ebba c03c ce46 ccb7 9d2e 36b9
00000040: b3fa 80b7 8c2b 14ba 989f 63b8 8ab6 9636
00000050: 4df6 f53a d11d 8bb9 ddcc 7d3c 31f9 2b39
00000060: 9e1a e3b9 ab46 1a39 3187 ecb8 3700 f839
00000070: e6c7 93b9 ed83 3c39 917a d1b9 f69b b53c
00000080: 00e2 de39 562a 1e3d 278a deb8 bb47 8a3c
00000090: 31ef 61b9 d003 92b9 bbeb a33c 350b 6eb9
000000a0: 297f 963c 3f90 5fb9 3085 ee38 5f5b f238
000000b0: 7d6d dc3a 8ea5 0dba 4945 953c 80c7 d93c
000000c0: bd33 60b9 d03b 28ba a506 8138 968b 9c3c
000000d0: 3526 c03b a31c ffb8 8c96 963c 381c fb38
000000e0: 4a48 a53c 6868 b23c 0703 853c 6792 1bba
000000f0: 2d69 4eba 403b 443c dad5 c63c 50ea e0b9
00000100: a22f 98b9 7dc3 31ba d493 c339 6ca0 1f39
00000110: 971b d73c 0d9c 7038 95a9 b13c f6d1 b63c
00000120: 5efb 0fb9 eb1b d13c 97f8 80b8 cb10 923c
00000130: dbd5 6eb9 d9ae 8ab8 cf6b a23a 460c 2d39
00000140: 8f74 a9b9 252f 413a a79b 8639 9ca4 a63c
00000150: 7564 623b 4a4a 92b9 5c9a cdb8 ec29 0e3a
00000160: acec da39 2d4d 8138 1dff 4cb9 60cd 8b3c
00000170: d3e7 4ab9 af8e feb8 f951 9db9 5b81 5b3c
00000180: 39c7 1938 4f69 b03c 1e6d a33c 6c9a dd37
00000190: 1848 3939 9887 0d3d 81b4 e039 4575 163c
000001a0: f7af a339 4ea2 c039 8d64 a939 bf95 83bd
000001b0: 4698 d0bc c8e0 bc39 0a4c b139 e3f2 d039
000001c0: 6077 a0bb 13b0 133b e65b 3f3a 711a 413a
000001d0: 4a2d 51bd 1660 86bb 85a5 2bb7 660e 54bd
000001e0: a6fc 7f39 73cb 40bb 4f2f a1ba 84b2 a4bb
000001f0: e08a 9b39 9040 6139 b91a 41bc 3409 57bb
00000200: 717e 1abd 2aae 6d39 0b16 84ba 9861 8338
00000210: ce81 e33a 8697 d9ba 6d43 07ba f962 0abb
00000220: 1de6 1ebb 5d95 69bd fe60 86bb ab28 8abd
00000230: 04ea 06bb ca0f cbbc d482 863b 32a7 c4b8
00000240: d031 5bbd e4a6 21bb 8e99 41bd 266f 25bb
00000250: b365 fb39 02e8 a339 d997 88bb 1eac f23a
00000260: 00c6 2bbd e86a 59bd 271f 9fba 1ae9 b9ba
00000270: 82fb 2abb 589a 59bd 5940 5abc 4a12 65ba
00000280: 3011 28bd ab11 d539 fd14 1dbd 4899 53bd
00000290: eaa1 c5bc add7 8ab8 777e 16bb 8984 77bc
000002a0: 4562 6abd c4ed 83b8 0bd7 1bbb 1384 9539
000002b0: 56af 003a aac5 5cbb d045 36be be73 84bb
000002c0: 90bf c7bd 099f 8d3d 6b10 9f39 6c79 5dbd
000002d0: d6c1 7037 7da1 45bd bc3e 11bb b949 a03a
000002e0: 696c d5ba 6169 a2bb 7841 6eba 2442 18bb
000002f0: df10 acba 1196 27bd b7ac 82bc 8d4f 2ebb
00000300: 04b4 203a cff1 9d3a 9093 82bb 462b 97bb
00000310: cb13 5939 ca23 58bd 15ff 3239 5a3e 47bb
00000320: 8d2f bdbb daf0 b6bc cde6 5839 c4e4 46bd
00000330: 7761 55bd b3b6 6938 4169 5b3a 43af 8dbd
00000340: 5dc3 813a dcca dcbd 2b71 9838 d108 d0bb
00000350: 48f6 4239 aa90 ab3e 827e 1cb9 b046 1fbb
00000360: f924 8c3a 13a2 5eb9 7bfa 9bbb 3cb0 353c
00000370: 10ac 573a bd86 8c3a 345a 12be ab5e 363b
00000380: 98a7 a0bc eebb 083e d866 493a dcd0 97ba
00000390: c2ff f63a 094f be3a c7c6 deba 1223 e3ba
000003a0: a774 e93b 953e af3b 6987 f5bd cc83 abba
000003b0: 3c0a 5d39 3a98 19bc d893 c7ba 6178 34bb
000003c0: f471 46bc fb4f f5ba 7ec9 763b 2ead f6bd
000003d0: 6a09 a5b7 6b72 b3be 720c 35bb 785b c4bc
000003e0: cd07 8abc a335 693b e606 103e 98fa d83b
000003f0: bc45 07be 2350 35bc 937a 843b b912 3ebb
-0.000509613 0.0343752 0.011538005 -1.1820583e-05 0.000105927014 -0.00030674442 0.00020194879 0.00065381546
-3.9567054e-05 -7.21391e-05 0.019551942 2.0255842e-05 -0.00012260686 0.02352663 -2.4351666e-05 -0.00017374237
-1.537553e-05 -0.0005652241 -5.426965e-05 4.4915987e-06 0.001876542 -0.0002653436 0.015490738 0.00016400662
-0.00043316645 0.0001471291 -0.00011278538 0.00047302406 -0.0002818696 0.00017978223 -0.00039954906 0.022169095
0.00042511523 0.038614593 -0.00010611518 0.016879907 -0.00021546778 -0.0002785013 0.020009866 -0.00022701624
0.018371182 -0.00021320673 0.000113735325 0.000115564784 0.0016817298 -0.0005403393 0.018221514 0.026584387
-0.00021381579 -0.0006417604 6.152437e-05 0.019109529 0.0058639296 -0.000121646815 0.018382333 0.00011973869
0.020176072 0.0217783 0.016236795 -0.00059345964 -0.0007873949 0.011977017 0.024271894 -0.00042899186
-0.00029027188 -0.0006781144 0.0003730344 0.00015223183 0.026258273 5.7365793e-05 0.021687308 0.022316914
-0.00013731184 0.025526008 -6.149819e-05 0.017830273 -0.00022777116 -6.612921e-05 0.0012391749 0.00016503138
-0.00032321035 0.0007369391 0.00025674442 0.020342164 0.003454474 -0.0002790264 -9.8039134e-05 0.0005423117
0.00041756534 6.1655745e-05 -0.00019549993 0.017065704 -0.00019350582 -0.00012138241 -0.00030006448 0.01339754
3.6663583e-05 0.02153459 0.019949492 2.6417161e-05 0.00017669832 0.03455314 0.00042859095 0.009183233
0.00031220887 0.0003674202 0.00032309108 -0.06425046 -0.025463235 0.0003602563 0.00033816724 0.00039853816
-0.004897043 0.0022535368 0.0007299766 0.0007366306 -0.05106858 -0.00410081 -1.0230932e-05 -0.051771544
0.00024412814 -0.002941814 -0.0012297424 -0.0050261635 0.00029667374 0.00021481724 -0.011786156 -0.0032811882
-0.03771824 0.00022666962 -0.001007737 6.264745e-05 0.001735741 -0.0016600944 -0.00051598885 -0.0021116121
-0.0024246045 -0.05702721 -0.004100918 -0.06746038 -0.0020586262 -0.024787802 0.0041049514 -9.377151e-05
-0.0535143 -0.0024666125 -0.04726558 -0.0025243252 0.00047950223 0.00031262642 -0.0041684923 0.001851443
-0.041936874 -0.05308047 -0.0012140021 -0.001418385 -0.0026089852 -0.05312571 -0.013321006 -0.0008738382
-0.041032016 0.0004063969 -0.038350094 -0.051659852 -0.024125058 -6.6205255e-05 -0.0022963563 -0.015107282
-0.057222623 -6.290854e-05 -0.0023779299 0.00028517898 0.00049089396 -0.0033687153 -0.17800069 -0.004042118
-0.097533345 0.06915099 0.00030339076 -0.054070875 1.4350246e-05 -0.04824971 -0.0022162637 0.0012229002
-0.0016282919 -0.00495641 -0.0009088735 -0.0023232782 -0.0013127587 -0.0409146 -0.015951497 -0.002659771
0.000613034 0.0012050214 -0.003984876 -0.004613313 0.00020702106 -0.052768506 0.00017070428 -0.0030402155
-0.0057734908 -0.022331644 0.00020685345 -0.04855801 -0.052094903 5.572168e-05 0.0008369871 -0.06918194
0.0009900142 -0.1078088 7.269004e-05 -0.0063487072 0.00018593029 0.33508807 -0.00014924447 -0.0024303608
0.0010692171 -0.00021231947 -0.004760084 0.011089381 0.00082272384 0.0010721307 -0.14292222 0.0027827423
-0.019611165 0.1335294 0.00076828664 -0.0011582631 0.0018844532 0.0014519404 -0.0016996496 -0.0017329177
0.0071245017 0.0053480365 -0.11988718 -0.0013085543 0.00021080015 -0.009374673 -0.0015226556 -0.0027537572
-0.0121121295 -0.0018715853 0.003765672 -0.1204475 -1.9673917e-05 -0.3504823 -0.0027625826 -0.023969397
-0.016849423 0.0035584948 0.14065132 0.00662167 -0.13210195 -0.011066469 0.0040429323 -0.0029002859

lstm1.weight_ih_l1 f4 [318, 106]
00000000: 57c0 903a 7c9b 443b 3efb c5ba 3b6d b3ba
00000010: dac2 c7b9 4212 b739 ecf2 aeba 68ad b9b9
00000020: bfbb 033b 10fe 51b9 d377 b03b c2e1 afb9
00000030: c52a 49ba 2d94 57bb 045e 37ba 4f9d 333a
00000040: 873a 10ba 95fd 5fba e1a5 d6ba d812 20b9
00000050: 3301 ac3a cf6e 0c3a 62f5 fbb9 cb3b bfb9
00000060: 777f 98ba dae5 a039 4dfe 4fbb 9352 033b
00000070: 6a98 85ba 4d8d beb9 4044 cc3a 9142 f83b
00000080: 9f12 83b9 8c1d f0b9 c702 a4b8 432c 43bb
00000090: 3f3d e5ba 1e71 c23a 9866 06bb b9ee cd3a
000000a0: d0e9 a73a adb5 a5ba 4100 fcb9 bdce c8b9
000000b0: 2b2b 263a 3ba4 0c3a 412a a4bb 90ba f73a
000000c0: 38b2 943a e724 eb3a 59ed e839 cebe 21bb
000000d0: 31f6 b9ba a307 7eba f623 66bb 3197 013a
000000e0: 29df 81ba fe9d 9dbb 35e1 633b 6a3a 67ba
000000f0: a43c 41bb 886f 503b 0ef2 90bb 25ab d6ba
00000100: d863 e7ba 7ebd 293b 163f 94ba d6e2 4f3a
00000110: 8b73 4a3b f929 203b c0a9 0fbb 2387 5eba
00000120: 9e6c 1fbb 86bc 6bbb 3b36 f639 5b3e dbba
00000130: edab b43a f9d0 393b 47a7 3abb d7ff 2c3b
00000140: 64a9 a73a e53e bcba f6ca 8539 7df2 5a3b
00000150: 7623 c1ba b541 dcba 4766 0cba 7161 47bb
00000160: 295c bdba 5cec 133a 70d7 9cba 08f5 f6bb
00000170: 20bc 61ba 8d6b 3f39 9dda 14bb 7e89 443b
00000180: ccfb dbba c5c6 80bb 8c1d ac3b 7e2b 4b39
00000190: fa20 f9ba 7313 9239 3d83 e6ba 2bd9 09ba
000001a0: 68b2 ea3a 99e3 c33a 7206 91b8 6b02 c2ba
000001b0: 2fff 243b ea66 ceb9 cc8b 9239 52e5 ffb8
000001c0: dca6 df3a 7283 fab9 ffe6 7e3a 8df5 d438
000001d0: 7175 163a cf0d 453a 0eaa 08b9 5cb1 8139
000001e0: 4f8b 7f39 202f 96b8 30c4 3eba 2bd6 8d39
000001f0: 4f84 feb9 147e 2139 aedf 583a 4d20 8b3a
00000200: fb73 4bba 84d7 0339 e15c fbb8 bf60 2a3a
00000210: acbb 1bba bf6c c839 b66f 70b9 7510 643a
00000220: c215 6c3a ea34 a13a e5dd feb9 c325 7d3a
00000230: 4dc9 9938 b067 33bb a354 59b8 e8ca 28b6
00000240: ccda daba ca1c b2b9 7b52 94ba 2763 f3b9
00000250: ee0e 20b9 660a e9b9 cd1f 973a c76c 4eba
00000260: 337f 07bb 3cf7 5e3a 76be 193a 0b50 cbb8
00000270: 810b 1439 b9c3 f6ba 6861 0dba 54f2 6c3a
00000280: 749d 313a 7436 a0b7 09ee 56ba b7bd afb9
00000290: 45f7 bc39 b93e 8d3a 09b5 06b7 58ce 10bb
000002a0: bc8e 42bb 8f1a d0ba ecf7 263a ede8 4eb9
000002b0: 7be4 5fba b952 be3a 3d66 26bb 905d 9b38
000002c0: 00ff db3a 241b 2a3b 8540 33ba a130 a4b9
000002d0: 4437 61ba 5fa5 8cba 65cc af39 2e42 fb39
000002e0: a7fc b3ba 1d90 8739 37d2 45b7 e8bb 8eba
000002f0: caa1 c237 7399 8239 f5fd a5ba f17d 11ba
00000300: bb46 5bba e6b7 4cba 1a11 5bba 58a5 6739
00000310: 92ae 11b9 e00d 36ba 2780 1bba c14c 77ba
00000320: 6b17 7cb9 91f7 053b 4fc6 ce39 8987 0bbb
00000330: 9670 253b 94c6 4e39 8e03 1eba 3abc 85ba
00000340: 6d32 14ba 26ff 36bb 7699 40b9 d7f0 f0b8
00000350: 8296 a536 4b4d 2138 3baa 83b8 f85d 0534
00000360: 32ac 5bb7 badf 5637 9939 3db8 6f11 f737
00000370: 298c 8537 cdee 4536 29fd bcb8 2ec1 32b8
00000380: a4b3 bdb8 6eb7 7238 557d c8b6 a5de d2b6
00000390: 07f7 2bb6 b589 3c37 cd7e 5db7 7764 a7b4
000003a0: fdda 1438 9197 1fb6 a280 3ab7 c58b 1035
000003b0: e7a8 01b8 0ab3 eb36 39ab 8eb7 dc8e 1036
000003c0: 6457 06b8 35a7 2938 7bd7 4937 2c6e 28b9
000003d0: aa96 ad38 e0d4 f438 7f4b c5b7 f630 a838
000003e0: 7ebe 3db8 9f14 bb37 6945 8538 1db7 5137
000003f0: d37d 1538 fa1a 2cb8 e5e3 4cb5 5462 3536
0.001104365 0.0029999902 -0.0015104783 -0.001368917 -0.00038101414 0.00034918083 -0.0013347543 -0.00035415147
0.002010092 -0.00020026439 0.005385378 -0.00033546804 -0.00076739147 -0.0032894716 -0.00069949054 0.0006851749
-0.00055018853 -0.00085445616 -0.001637634 -0.00015265809 0.0013122916 0.0005357088 -0.00048057275 -0.00036474908
-0.0011634667 0.0003068883 -0.0031737268 0.0020038232 -0.0010192518 -0.000363449 0.0015584305 0.0075762947
-0.0002500014 -0.0004579838 -7.820647e-05 -0.002978102 -0.0017489566 0.0014834737 -0.0020507928 0.0015711404
0.001281077 -0.0012642645 -0.00048065375 -0.00038301005 0.000633883 0.00053650484 -0.00500992 0.0018900204
0.0011344617 0.0017940075 0.00044427326 -0.002468038 -0.0014187751 -0.0009690469 -0.003511665 0.0004943489
-0.0009908426 -0.004810094 0.0034771685 -0.0008820655 -0.0029485608 0.003180476 -0.0044233864 -0.0016377909
-0.0017653657 0.00259003 -0.0011310305 0.00079302245 0.0030891623 0.002443908 -0.0021921247 -0.0008488765
-0.0024326215 -0.0035970523 0.0004696118 -0.0016726957 0.0013784148 0.0028353317 -0.0028481053 0.002639761
0.0012791571 -0.0014362006 0.00025518954 0.0033408694 -0.00147353 -0.001680425 -0.00053558167 -0.003042307
-0.0014447022 0.0005642825 -0.0011966061 -0.007536534 -0.00086111017 0.00018255245 -0.0022713311 0.0029989178
-0.0016783415 -0.003929945 0.0052525457 0.0001937579 -0.001900702 0.0002786178 -0.001758672 -0.0005258496
0.0017905952 0.0014945149 -6.915339e-05 -0.0014801746 0.0025176515 -0.0003936806 0.00027951447 -0.00012202062
0.0017063278 -0.0004778165 0.0009723752 0.00010154685 0.0005739546 0.0007517011 -0.00013033321 0.0002473694
0.00024370592 -7.161335e-05 -0.0007277159 0.00027053183 -0.00048545233 0.00015401124 0.0008273077 0.0010614485
-0.0007761118 0.0001257342 -0.00011985913 0.00064994016 -0.0005940746 0.00038227995 -0.00022929799 0.0008699962
0.0009005928 0.0012299095 -0.0004861198 0.0009656811 7.333104e-05 -0.0027375035 -5.1815656e-05 -2.5152058e-06
-0.0016697287 -0.00033972255 -0.0011316085 -0.00046422446 -0.00015264351 -0.0004444897 0.0011529863 -0.00078744855
-0.0020675182 0.0008505469 0.00058648677 -9.6947035e-05 0.00014118665 -0.001882664 -0.0005393238 0.0009038795
0.00067754765 -1.9098843e-05 -0.0008198922 -0.0003351995 0.00036042384 0.0010776139 -8.029173e-06 -0.0022095647
-0.0029687127 -0.0015877056 0.00063693407 -0.00019732463 -0.0008540821 0.0014520503 -0.0025390529 7.408403e-05
0.001678437 0.0025956118 -0.0006837922 -0.0003131675 -0.0008591304 -0.0010730437 0.00033530887 0.00047923758
-0.0013731912 0.0002585658 -1.17910595e-05 -0.0010889741 2.3201941e-05 0.0002490986 -0.0012664186 -0.0005550078
-0.00083647267 -0.00078093854 -0.00083567353 0.00022091472 -0.0001389331 -0.00069448166 -0.0005931877 -0.00094337395
-0.00024041317 0.002044175 0.00039439133 -0.0021290502 0.0025244108 0.00019719667 -0.00060277514 -0.0010203191
-0.0005653266 -0.0027923076 -0.00018367716 -0.00011488952 4.9349046e-06 3.8457376e-05 -6.278275e-05 1.2420776e-07
-1.309351e-05 1.2807484e-05 -4.5114753e-05 2.9452813e-05 1.5920103e-05 2.9494288e-06 -9.011693e-05 -4.261842e-05
-9.045683e-05 5.786813e-05 -5.975055e-06 -6.284407e-06 -2.5624774e-06 1.1237736e-05 -1.320215e-05 -3.1179272e-07
3.54899e-05 -2.378107e-06 -1.1116414e-05 5.384757e-07 -3.09133e-05 7.0243887e-06 -1.700745e-05 2.1540827e-06
-3.202948e-05 4.0448464e-05 1.2030704e-05 -0.00016062771 8.277346e-05 0.00011674478 -2.3519386e-05 8.019984e-05
-4.523852e-05 2.230174e-05 6.354863e-05 1.2500005e-05 3.564155e-05 -4.103312e-05 -7.632755e-07 2.7028336e-06

lstm1.weight_hh_l1 f4 [318, 106]
00000000: aaf6 b7b9 a0c8 06ba bbd4 87ba e42d 853a
00000010: 7fdf 2a39 7531 3439 778e 89ba decc 97b9
00000020: 361d 8eb9 7008 69b6 2820 833a e24b c739
00000030: eebf 293a b09f 13ba 2b8b 51ba 5602 6fba
00000040: 9881 6839 8330 a739 4601 2f3a 7ffe 90b8
00000050: 80a4 0239 6a13 76ba 2cd7 16ba 26ad 8cba
00000060: 3ee0 1c3a 6f7f dab9 8443 65b8 1ad1 aa3a
00000070: 99eb c13a d50c 17b9 a98e a8b9 3373 5239
00000080: 55b2 5a3a 0ac0 aeb8 82b2 2fb9 6434 2cb9
00000090: c2ce 34ba aeac 8d39 ee0a 48ba d59d 1a39
000000a0: 2302 cc39 e382 633a 79d4 153a 7be0 1839
000000b0: ea4e 97b9 cbb7 0fba 2299 253a c70d 36ba
000000c0: 8fd6 1a3a 275e 05ba 79fa 5a3a a597 6dba
000000d0: 2d1a 61b9 93a1 2dba 1495 abb9 67b8 3cba
000000e0: a10f 57ba 0f53 00ba 6e8e 9e3a 2dbb 2739
000000f0: 42a3 d1b9 e757 2dba 8430 98ba 7b05 dfb8
00000100: a433 a239 f491 223a 7e31 91b9 a95b 8cb8
00000110: 3d84 9eb9 db48 44ba 4bda 4739 08f5 a0b9
00000120: 8637 22b9 df60 e0b9 abee 0aba 5163 1c39
00000130: 452e 2539 f41c cb39 b4d0 02ba 7bb6 193a
00000140: 7fdf 3cb9 2df2 0aba 8256 3c3a 7373 8aba
00000150: 53b4 0c3a 5a8c 4f39 388d 0639 ecb4 00b8
00000160: c566 52ba 7a85 b1b9 6e68 48b9 12b1 603a
00000170: c665 03ba 4737 643a 894f efb9 8959 a9b9
00000180: ec5e 043a 9972 68ba a4a9 feb9 bd30 1eba
00000190: 66dd dfb9 a9d2 573a f584 3aba 75fa 353a
000001a0: b252 4dba 030d 3a3a 2293 6338 60d2 e038
000001b0: b608 92b9 2047 66b8 617a 96b8 d2f7 cab8
000001c0: d850 39b9 df1c 68b7 38b0 6837 2d2f e336
000001d0: acff 0e39 6987 1639 dfc5 8eb8 245f bbb9
000001e0: b123 29b8 2d5a 1639 d598 50b8 25fa 0838
000001f0: 5fb4 6739 be5a 1d38 e4c5 1a39 73c5 7936
00000200: b582 7ab8 7c82 14b9 6bc9 b3b8 f100 d4b9
00000210: 8014 60b7 8b5d a138 865d 9739 337c 2d38
00000220: bca8 89b9 b36b ae38 3818 9339 68c8 98b9
00000230: 2648 0fb8 7111 23b9 d639 53b9 c622 d8b7
00000240: 8402 91b9 5698 92b8 ad18 42b7 e9ff d838
00000250: 48c9 8f38 414b 6b39 ae64 1c37 5755 10b8
00000260: 5828 6738 920b 11b9 1207 f638 6470 9336
00000270: efcf 1639 fde1 2fb8 5d61 14b9 dd7c d5b8
00000280: a0d8 6038 3b09 81b9 40e8 ee38 bd9b 88b9
00000290: be6e f339 6043 2237 6392 9937 a9a8 8bb8
000002a0: c04e 88b8 d58d c4b7 c208 c737 a666 8eb9
000002b0: dee0 aab8 d162 1239 4a1a 4eb8 4fb5 e2b9
000002c0: a811 a336 c1e6 5e38 03bb a6b8 4a0f 1cb9
000002d0: 3b2a c339 bdfb ab37 5770 eb38 cbc6 a0b7
000002e0: 2ba6 0cb8 d9b4 2138 3130 3a38 64d9 f237
000002f0: cd10 d039 19ae 96b8 63e3 ad39 f435 2437
00000300: f87d 7138 4c3a da36 43e3 8bb8 4162 45b9
00000310: e7c8 74b8 2fa8 6736 06a7 a9b9 cfae f738
00000320: 24e9 95b9 c8cd 52b8 e4e4 bc39 c479 7cb8
00000330: 71fb 1238 a8f6 a7b9 d340 45b9 c154 0939
00000340: 31b2 42b9 f416 1a39 9317 08b9 b914 ae38
00000350: fa79 0fb7 32ec 22b7 b2f3 d4b6 ce57 2837
00000360: 73fa 74b5 505b afb3 bc68 8fb6 bc6e edb5
00000370: 19b3 6bb6 ecfe f034 ccec 0d37 82e1 1d35
00000380: b24b 5e37 accb 3636 afe4 90b6 b939 28b7
00000390: 73d0 b435 9f30 cd35 b249 0a37 8bc4 f733
000003a0: f876 8f36 6185 a0b6 a43a 02b7 27ac 9db6
000003b0: dfb6 6d37 1473 ea35 3bc8 e336 de23 1437
000003c0: 72f4 1037 06b8 2fb3 9950 9436 5667 bf35
000003d0: 7ee0 beb3 3749 ff36 7f91 2335 21f3 dd34
000003e0: 5b60 ecb5 ddf5 ad35 cfea 24b7 134f 9635
000003f0: 259c 2037 c17b 1436 0c00 a536 1afa 8536
-0.0003508826 -0.000514159 -0.0010363081 0.0010160771 0.00016295722 0.00017184562 -0.0010494728 -0.00028953602
-0.00027106114 -3.4724617e-06 0.001000409 0.00038012775 0.0006475438 -0.00056314 -0.0007993455 -0.00091174745
0.00022173522 0.00031888866 0.000667591 -6.913859e-05 0.00012459047 -0.0009387048 -0.0005754109 -0.0010732755
0.00059843424 -0.00041675146 -5.4660733e-05 0.0013032288 0.0014794945 -0.00014405262 -0.00032149747 0.00020070076
0.00083426136 -8.3327366e-05 -0.000167558 -0.00016422715 -0.00068972644 0.00027022272 -0.0007631023 0.00014745381
0.00038911504 0.00086788664 0.000571556 0.00014579475 -0.0002885976 -0.00054824044 0.0006317069 -0.0006944802
0.00059066055 -0.0005087577 0.00083533634 -0.00090634293 -0.00021467423 -0.00066235027 -0.00032726733 -0.0007199109
-0.0008203928 -0.0004895189 0.0012096891 0.0001599609 -0.00039985223 -0.0006612525 -0.0011611138 -0.000106344894
0.00030937523 0.0006201558 -0.0002769343 -6.692793e-05 -0.00030234634 -0.0007487663 0.0001905944 -0.0003070014
-0.00015470208 -0.00042796784 -0.00052998465 0.00014914318 0.00015752863 0.0003874075 -0.00049902056 0.00058636785
-0.00018012336 -0.0005300369 0.00071845215 -0.0010562971 0.00053674466 0.00019793343 0.00012831844 -3.0686075e-05
-0.0008026178 -0.0003385952 -0.0001911239 0.00085713074 -0.0005012419 0.0008705747 -0.0004564489 -0.000323009
0.0005049545 -0.0008867174 -0.00048573047 -0.0006034484 -0.0004269883 0.000823299 -0.0007115149 0.0006941923
-0.0007832452 0.0007097276 5.4258046e-05 0.00010720338 -0.0002785378 -5.4902514e-05 -7.175352e-05 -9.678271e-05
-0.00017673091 -1.3835e-05 1.3869307e-05 6.770619e-06 0.0001363742 0.00014355559 -6.807944e-05 -0.00035738305
-4.032598e-05 0.00014338708 -4.97334e-05 3.2657892e-05 0.0002209707 3.7516227e-05 0.00014760304 3.7218822e-06
-5.9726375e-05 -0.00014162989 -8.572902e-05 -0.00040436492 -1.33562135e-05 7.694502e-05 0.00028870645 4.1362084e-05
-0.00026256393 8.317027e-05 0.0002805607 -0.00029141014 -3.416105e-05 -0.00015551389 -0.00020144074 -2.57654e-05
-0.0002765843 -6.990197e-05 -1.1569046e-05 0.000103473496 6.856263e-05 0.0002243938 9.321766e-06 -3.4411754e-05
5.5112265e-05 -0.00013832588 0.00011731511 4.3940254e-06 0.00014382576 -4.193372e-05 -0.0001415065 -0.00010179889
5.360751e-05 -0.00024611675 0.00011391984 -0.00026055975 0.0004643108 9.671639e-06 1.8307188e-05 -6.659452e-05
-6.499654e-05 -2.3431066e-05 2.3726727e-05 -0.0002716083 -8.1481165e-05 0.00013960457 -4.913871e-05 -0.00043241165
4.859834e-06 5.314383e-05 -7.9503305e-05 -0.00014883015 0.00037224762 2.0502013e-05 0.00011226598 -1.9166057e-05
-3.3533357e-05 3.855382e-05 4.4390737e-05 2.8949878e-05 0.0003968537 -7.1849856e-05 0.00033166548 9.787724e-06
5.7576195e-05 6.503693e-06 -6.670367e-05 -0.00018823986 -5.836124e-05 3.4519578e-06 -0.00032358634 0.000118104384
-0.00028593198 -5.025955e-05 0.0003602869 -6.0194885e-05 3.5043286e-05 -0.00032036495 -0.00018811533 0.00013096911
-0.00018567663 0.00014695135 -0.00012978753 8.3008264e-05 -8.551864e-06 -9.710946e-06 -6.346462e-06 1.0034024e-05
-9.1261535e-07 -8.165682e-08 -4.273925e-06 -1.7690104e-06 -3.5121977e-06 4.4888964e-07 8.4593885e-06 5.8815215e-07
1.3249855e-05 2.7238666e-06 -4.3181567e-06 -1.002702e-05 1.3471712e-06 1.5287841e-06 8.2425995e-06 1.1537585e-07
4.275582e-06 -4.783899e-06 -7.762257e-06 -4.699006e-06 1.4168879e-05 1.7467851e-06 6.788437e-06 8.829838e-06
8.639983e-06 -4.091273e-08 4.4201265e-06 1.4260684e-06 -8.888399e-08 7.6081155e-06 6.0933957e-07 4.1341357e-07
-1.7611413e-06 1.296106e-06 -9.829832e-06 1.1198885e-06 9.573098e-06 2.2125753e-06 4.9173887e-06 3.9928245e-06

lstm1.bias_ih_l1 f4 [318]
00000000: 2691 81ba c0f8 f238 b468 a6b8 2364 ec3a
00000010: 8c83 b3ba 9246 c338 191a 43b9 1c9f d539
00000020: 752d a63a aa7b 10b7 a8ca 0a3a e757 5b39
00000030: 92e0 2139 d961 863b 2309 8439 650e ea3a
00000040: e004 21b6 b3c2 6038 39aa 253a dd0e a836
00000050: 855c c1b8 db00 8939 c1e5 48b9 a610 363a
00000060: 0ef6 b63a 0431 873b c6b4 5eb9 0f21 12b9
00000070: c0b1 c839 ea32 a4b7 7f67 6b3a 7c43 e539
00000080: 48bb 48ba 3617 c43a eac0 243a 4e0c 3837
00000090: 1234 1138 5be4 2f37 8657 753a 5365 48b9
000000a0: e6ab 6b3b 69a1 a9b9 c6b8 8439 e8ad 243b
000000b0: 38e6 ff38 f954 e538 8b8f 5b3b acd4 0d3a
000000c0: a260 5ab8 b2a0 c837 8c22 e13a b109 0c3b
000000d0: dbe7 44b8 0e54 e737 1855 2d3b 479a aa32
000000e0: e9de ab3a 3e6a 2938 1957 163b b36b 2cb7
000000f0: c5b3 b3b6 63dd 3039 655d f539 33cf 823b
00000100: 3f30 433b 75ff 0d3a 20c1 ac35 853b ca3a
00000110: 994c bcb6 e993 1639 d5ca 3f36 53cc 9439
00000120: b5d1 f83a 2e9c 9f3b 2cdc b63a 85b6 e434
00000130: 411c b735 e214 3e39 523a dd39 3260 b438
00000140: 353e 393b 3ae1 983b 9a80 e7b9 8816 6db9
00000150: 116c 783a d6e1 c938 aa3b 1d38 7e39 aa3b
00000160: 6497 7339 372a acb9 91ad d4b5 144e f63a
00000170: 95f6 1d3b 3bb6 a938 90f5 ae39 47d0 f339
00000180: a484 093b 3e4c 423a 5dc0 cb38 cf20 9cb9
00000190: e751 1439 4481 3739 ed87 003a 319d 4f39
000001a0: fb7e 0339 ab17 e9b8 ac2c 213e e4e1 bf3c
000001b0: 20d6 cd39 dc7f c2b9 ea22 76bb aa0a c238
000001c0: 0af6 22ba 5866 ae3a a9ef 383e f9a9 a737
000001d0: 2b8f 4d3c af08 fdba 10ad 5a3d e579 6c3e
000001e0: dfc2 4c39 5938 483b 33ab 5c37 7fc3 9b39
000001f0: 44e3 3bbb ab31 7e36 c99d fdba 5fe7 2e39
00000200: 9cd4 20bb c1d9 6fb9 c1ec acba 379a 513e
00000210: 2099 abb9 09a4 62ba 6de1 84ba 979d 2539
00000220: 36ce 603e 5bb0 12bb 5c87 11ba 435b 563e
00000230: 6304 2db9 8df9 463e 1379 353a fe68 65b8
00000240: 5c0f 073b dcad 8d3a 5fc7 2d3e a2b0 40ba
00000250: 4065 1039 29d6 503e 0385 c939 ad5e 3538
00000260: a29a d93d 0edb 31bb 7f5d 07ba 6323 3539
00000270: 7ec3 613c da77 65bb c5b0 35ba 2d76 7b38
00000280: a603 1f3e 9423 74b7 91ff fe3a 5a96 b539
00000290: d883 35bb 450e ad3a 4604 bc38 3ac4 a7ba
000002a0: 11ec e4ba 566e 2c3e 9847 153e d407 2d3d
000002b0: b1ef 2c38 86e3 4f3e 099d fc38 a76b 6dba
000002c0: cace f936 93b1 96ba e71c 573e efde 263e
000002d0: 0b44 253c 7f72 2d37 46d7 d136 9aa9 04bb
000002e0: 05db 433a 8ad4 013a 08b4 2a3e b143 b63d
000002f0: 687c 0abb 647d 463a 6a1e 8aba 7fe3 6539
00000300: 4210 2eba 290d 473e 4263 3c3d ba7c 51ba
00000310: 23fb dfb4 e5d3 a03c eaf4 d1ba b811 03ba
00000320: 1686 8abb 3691 84bb 627e 703e fa33 183c
00000330: 271a bdb8 7935 06b9 21ea 8dba 263b 98ba
00000340: fb1c af37 6d3a 0c39 236a b039 4fa0 5fba
00000350: 296e 4e3e 8058 203e 2d4e bf3a 7006 e7bd
00000360: e768 82bd ecd6 4c3b 6d1f efba 3287 eabb
00000370: 3e36 383e ba1f 2dbb 73c5 1cbe 31e2 d1bc
00000380: dd12 32be ec5e d4bd 8c32 b4bb 3f2d 173e
00000390: 00a3 7bba 40cd ac3a 802e 84bc bf71 f43a
000003a0: 8b1b 61bc d7ff e1bb 1226 113c abd0 e13c
000003b0: 4040 c9bd 496d 12be 8c64 76bd cad5 ee3b
000003c0: 05b1 223c 813c 97ba d071 15be 35fb 283d
000003d0: fa49 a9bc 579c 09be 151b 253c 018a 2abe
000003e0: defd ac39 6267 5d3c fccf fd3d 72ad c43c
000003f0: cd9d 3bbe 3175 04bd fdf4 b33b d967 1abe
-0.0009885177 0.000115857925 -7.934999e-05 0.0018035214 -0.001369582 9.311469e-05 -0.00018606371 0.00040745072
0.0012678342 -8.611862e-06 0.00052944804 0.00020918214 0.00015437815 0.00410102 0.0002518381 0.0017857073
-2.3993707e-06 5.358709e-05 0.00063196156 5.0085205e-06 -9.22019e-05 0.00026131314 -0.00019159076 0.000694523
0.0013958828 0.004125716 -0.00021238913 -0.0001393596 0.00038279407 -1.9574032e-05 0.00089799607 0.00043728563
-0.00076573016 0.0014960531 0.000628485 1.097012e-05 3.461919e-05 1.0483981e-05 0.00093590503 -0.00019111233
0.0035960614 -0.00032354452 0.0002531467 0.002512807 0.00012202229 0.00010935398 0.0033502306 0.0005410414
-5.2065247e-05 2.3916687e-05 0.0017176433 0.0021368081 -4.6945974e-05 2.7576487e-05 0.0026448425 1.9860762e-08
0.0013112697 4.0391686e-05 0.0022940098 -1.0277075e-05 -5.3555436e-06 0.00016867141 0.00046799626 0.003991985
0.0029783396 0.0005416789 1.2871205e-06 0.0015429115 -5.6117537e-06 0.00014360216 2.8579282e-06 0.00028380993
0.0018983396 0.004870913 0.0013951114 4.260111e-07 1.3642785e-06 0.00018127591 0.00042195857 8.6009866e-05
0.0028265838 0.004665521 -0.0004415557 -0.00022610475 0.00094765524 9.626492e-05 3.7487283e-05 0.005194842
0.00023230683 -0.0003283785 -1.5845745e-06 0.001879158 0.0024103273 8.092491e-05 0.00033370825 0.0004650375
0.00209836 0.00074118737 9.715625e-05 -0.00029779083 0.00014144891 0.00017500395 0.0004903067 0.00019799617
0.00012540437 -0.00011114714 0.15739697 0.023423143 0.00039260183 -0.00037097826 -0.0037557431 9.252627e-05
-0.0006216472 0.0013305647 0.18060173 1.9987101e-05 0.012546341 -0.0019304956 0.0533877 0.23093374
0.00019527551 0.0030551164 1.3152882e-05 0.0002970956 -0.0028669396 3.787786e-06 -0.0019349392 0.00016680126
-0.0024540788 -0.00022873936 -0.0013193117 0.20468985 -0.0003272975 -0.0008645659 -0.0010137983 0.00015794333
0.21953663 -0.0022382948 -0.0005551481 0.20933251 -0.000165002 0.19431134 0.00069226435 -5.4695636e-05
0.002060852 0.001080926 0.16970585 -0.0007350539 0.00013770629 0.20394196 0.0003843681 4.3241937e-05
0.10625197 -0.0027138623 -0.00051637733 0.00017274688 0.013779519 -0.0035014064 -0.0006930943 5.9953123e-05
0.15528736 -1.4551817e-05 0.0019454827 0.0003463503 -0.0027696993 0.0013203105 8.9653346e-05 -0.0012799569
-0.0017465373 0.16838965 0.14578092 0.042243794 4.1231226e-05 0.20301637 0.000120455465 -0.0009056874
7.4448517e-06 -0.0011497013 0.21007119 0.1629598 0.0100870235 1.0338262e-05 6.2537465e-06 -0.0020242692
0.0007471296 0.000495263 0.16670239 0.0889963 -0.002113128 0.0007571785 -0.0010537629 0.00021923891
-0.0006639996 0.19438614 0.045993097 -0.0007991303 -4.1719713e-07 0.01963229 -0.0016018425 -0.0004999894
-0.00422741 -0.004045631 0.23485711 0.009289736 -9.0170935e-05 -0.00012799156 -0.0010827222 -0.0011614307
2.087512e-05 0.00013373206 0.00033648414 -0.0008530663 0.2015921 0.1565876 0.0014595442 -0.11280525
-0.06367665 0.0031256033 -0.0018243619 -0.00715723 0.17989442 -0.0026416616 -0.15309696 -0.025620552
-0.17390008 -0.103696674 -0.0054991897 0.14763354 -0.0009599179 0.0013183728 -0.016135454 0.0018649622
-0.013739477 -0.0068969536 0.008859174 0.027565321 -0.09826708 -0.14299501 -0.060154483 0.0072886692
0.0099299 -0.0011538417 -0.14594197 0.041255195 -0.020665158 -0.13438545 0.010077258 -0.16654207
0.00032995542 0.013513418 0.123931855 0.024008486 -0.18321915 -0.032338325 0.0054918514 -0.15078677
